app/model.npz (npz, 204566 bytes, 4 tensors)

W1 f8 [784, 32]
000000 f8 37 86 06 c8 fb 41 3f 5b b1 31 78 71 6f 47 3f
       0.0005488135039273248 0.0007151893663724195
000010 b3 e6 64 7e 58 c0 43 3f 32 0a be b9 cf da 41 3f
       0.0006027633760716439 0.0005448831829968968
000020 9e 46 09 82 bf c3 3b 3f 51 7e d0 0b 27 2a 45 3f
       0.0004236547993389047 0.0006458941130666561
000030 1b 0c f3 c2 7e ad 3c 3f f3 29 d9 ef bb 38 4d 3f
       0.00043758721126269253 0.0008917730007820798
000040 13 7a 36 05 ca 93 4f 3f 64 62 85 c8 14 21 39 3f
       0.0009636627605010293 0.0003834415188257777
000050 d7 c7 af 92 78 f1 49 3f a2 ea 11 31 b1 54 41 3f
       0.0007917250380826646 0.0005288949197529045
000060 c4 43 02 68 1a 9d 42 3f b2 71 37 a5 77 54 4e 3f
       0.0005680445610939324 0.000925596638292661
000070 d7 77 eb 2f 26 9f 12 3f 4e 3a 91 f8 25 d7 16 3f
       7.103605819788694e-05 8.712929970154071e-05
000080 8d 47 4a b1 55 33 f5 3e ca 37 d9 80 85 48 4b 3f
       2.021839744032572e-05 0.000832619845547938
000090 a9 6c f3 e5 a6 7f 49 3f 70 e1 a6 dc 30 82 4c 3f
       0.0007781567509498505 0.0008700121482468192
0000a0 a2 25 9c 71 9f 08 50 3f 04 83 e5 f2 d3 2f 4a 3f
       0.000978618342232764 0.0007991585642167236
0000b0 a6 97 c6 c4 56 3e 3e 3f d9 9b 92 a4 8d 93 49 3f
       0.00046147936225293185 0.0007805291762864555
0000c0 5e b2 0b 2a 43 01 1f 3f 78 69 e7 ed 0b f8 44 3f
       0.00011827442586893322 0.0006399210213275238
0000d0 f2 b6 c5 5c 23 ca 22 3f f8 e7 58 0d 75 f4 4e 3f
       0.0001433532874090464 0.0009446689170495839
0000e0 55 8c d9 bc 94 19 41 3f c9 a0 9d 78 df 2c 3b 3f
       0.0005218483217500717 0.0004146619399905236
0000f0 bf d2 b3 b3 81 56 31 3f fb 0c 13 30 be 5e 49 3f
       0.000264555612104627 0.0007742336894342167
000100 04 36 49 c2 ee e4 3d 3f ae ac 33 9c 5e a0 42 3f
       0.00045615033221654854 0.0005684339488686485
000110 f6 88 03 41 d9 b3 f3 3e b0 8d 61 21 1a 3d 44 3f
       1.8789800436355143e-05 0.000617635497075877
000120 2c fe 38 8e a1 0e 44 3f c5 2a 91 ab 37 37 44 3f
       0.0006120957227224214 0.000616933996874757
000130 aa 50 02 91 bb ec 4e 3f b4 80 75 f1 85 57 46 3f
       0.0009437480785146242 0.0006818202991034834
000140 a2 4d f5 ac 8a 8f 37 3f 6d 7b e9 f2 2d a4 3c 3f
       0.000359507900573786 0.0004370319537993415
000150 82 20 e9 95 27 dc 46 3f 60 e5 c1 72 53 93 0f 3f
       0.0006976311959272649 6.022547162926983e-05
000160 45 c1 52 9e 3e d9 45 3f 17 07 d6 db b7 f9 45 3f
       0.0006667667154456677 0.0006706378696181595
000170 d1 2c 5d 70 44 93 2b 3f f6 94 cb 76 0c e6 20 3f
       0.0002103825610738409 0.0001289262976548533
000180 ea 43 92 73 02 ac 34 3f 4c 7d cc dd 0d d6 37 3f
       0.0003154283509241839 0.0003637107709426226
000190 96 ee 98 3d 28 af 42 3f aa 10 03 28 83 be 3c 3f
       0.0005701967704178797 0.00043860151346232035
0001a0 1d 49 e2 53 8a 31 50 3f 5e fa e2 7f 1c c0 1a 3f
       0.0009883738380592263 0.00010204481074802807
0001b0 c7 61 32 ac bd 60 2b 3f df c5 2b 35 a6 24 25 3f
       0.0002088767560948347 0.00016130951788499625
0001c0 4c f4 05 73 ab 66 45 3f d1 e3 35 26 87 99 30 3f
       0.0006531083254653985 0.0002532916025397821
0001d0 25 a8 e9 84 65 8f 3e 3f b2 23 88 ec c7 04 30 3f
       0.0004663107728563063 0.00024442559200160273
0001e0 94 a6 5c 53 22 d6 24 3f f4 a1 82 7c 26 ef 1c 3f
       0.00015896958364551973 0.00011037514116430514
0001f0 4a a0 a2 0f b1 81 45 3f 52 52 89 83 a6 1c 22 3f
       0.0006563295894652735 0.0001381829513486138
000200 d5 3c f7 a0 35 c4 29 3f 73 6d 98 8c 2e 2a 38 3f
       0.0001965823616800535 0.0003687251706609641
000210 e2 86 45 89 fd e6 4a 3f 27 b5 39 37 5b 74 19 3f
       0.0008209932298479351 9.710127579306127e-05
000220 f2 84 9d fc 30 75 4b 3f 9a 89 8f 13 0e 31 19 3f
       0.0008379449074988039 9.609840789396307e-05
000230 c9 c5 ea bb 22 ff 4f 3f 2f 35 95 95 a9 b6 3e 3f
       0.0009764594650133958 0.00046865120164770157
000240 03 90 81 3b d5 00 50 3f 06 e4 fb dc cf d1 43 3f
       0.0009767610881903372 0.000604845519745046
000250 2a 16 c5 72 64 39 48 3f f8 03 01 4a b2 8b 04 3f
       0.0007392635793983017 3.9187792254320676e-05
000260 67 ce c4 a7 b6 88 32 3f ec b5 b0 32 41 82 1f 3f
       0.0002828069625764096 0.00012019656121316891
000270 83 a2 a0 76 68 68 33 3f 7b 38 1e ae ae 1f 1f 3f
       0.00029614019752214493 0.00011872771895424406
000280 bd 4c 2e 5b df d6 34 3f 75 1a 6d 03 2e 26 3b 3f
       0.00031798317939397605 0.00041426299451467
000290 ac 48 83 98 dd d0 10 3f 3c 3a 94 8d e0 b0 46 3f
       6.414749634878436e-05 0.0006924721193700199
0002a0 81 82 9b 5b ff 90 42 3f ea 6e 2d 2f 7f 64 31 3f
       0.0005666014542065751 0.00026538949093944544
0002b0 ba b7 7f a3 52 25 41 3f 92 ad 97 af 3d a0 18 3f
       0.0005232480534666996 9.394051075844168e-05
0002c0 37 a1 6b ae 63 df 42 3f 74 08 71 63 80 73 4e 3f
       0.0005759464955561792 0.0009292961975762141
0002d0 73 f9 77 3b b3 e0 34 3f 1b 5d a2 e0 a4 de 45 3f
       0.0003185689524513237 0.0006674103799636817
0002e0 c1 94 75 04 67 46 21 3f c5 3d 1c f5 fc 78 47 3f
       0.0001317978624043922 0.0007163272041185656
0002f0 42 3c 58 b4 6d f7 32 3f d7 17 45 d1 e1 02 28 3f
       0.0002894060929472011 0.00018319136200711683
000300 55 15 d5 ef 06 38 43 3f bd 54 6d 0d 94 15 f5 3e
       0.0005865129348100832 2.0107546187493554e-05
000310 70 3e 6d 28 a7 29 4b 3f f8 53 fc aa ba b1 d3 3e
       0.0008289400292173631 4.695476192547066e-06
000320 7f 68 da ed ef 35 46 3f bf f4 1d 6a fb b1 31 3f
       0.0006778165367962301 0.0002700079731921649
000330 ad 62 ff 23 41 17 48 3f 70 18 bc 2a 6c 87 4f 3f
       0.0007351940221225949 0.0009621885451174383
000340 8f fb be 9d 62 4d 30 3f 97 77 4f 74 28 e1 42 3f
       0.000248753143519958 0.000576157334417837
000350 81 3c c8 5d 68 66 43 3f ab 8e 37 9c 65 c0 42 3f
       0.000592041931271839 0.0005722519057908734
000360 b2 2f 10 a2 60 3d 2d 3f 04 ec 41 ec 3c 38 4f 3f
       0.0002230816326406183 0.000952749011516985
000370 d1 23 dd e0 84 4d 3d 3f 05 c1 9d c8 30 bc 4b 3f
       0.00044712537861762736 0.0008464086724711278
000380 60 ca 4c 4e a8 eb 46 3f 58 d6 fe f9 29 7e 33 3f
       0.0006994792753175043 0.00029743695085513366
000390 fd f7 b5 82 a1 aa 4a 3f e1 8b 8a 30 43 fc 39 3f
       0.0008137978197024772 0.00039650574084698463
0003a0 3e 46 3f b5 3a df 4c 3f 73 db 2f fd 11 0c 43 3f
       0.0008811031971111616 0.0005812728726358587
0003b0 3d 87 7d 45 88 e4 4c 3f 30 44 f2 43 60 b1 46 3f
       0.0008817353618548529 0.0006925315900777659
0003c0 b9 c4 e0 b4 df c3 47 3f b9 a6 9b e9 69 6d 40 3f
       0.0007252542798196405 0.0005013243819267022
0003d0 53 94 c0 f8 35 54 4f 3f c6 06 1d 6c 2e 1a 45 3f
       0.0009560836347232239 0.0006439901992296374
0003e0 8b 9b 61 92 1b c7 3b 3f 24 14 f8 82 cb de 43 3f
       0.00042385504855817967 0.0006063932141279244
0003f0 67 f6 71 8b 22 20 f4 3e 37 fd 93 f9 95 c3 33 3f
       1.9193198309333528e-05 0.0003015748166745493
000400 59 5f 69 e0 ef a1 45 3f b2 d7 15 d6 b1 02 33 3f
       0.000660173537492685 0.00029007760721044406
000410 33 23 2a 07 4a 40 44 3f bf f7 50 8c 8b 19 3c 3f
       0.0006180154289988415 0.00042876870094576616
000420 fe d2 bf 59 c1 c1 21 3f 8f ac bf d5 58 8c 33 3f
       0.00013547406422245023 0.00029828232595603075
000430 cc c3 5e 53 36 ad 42 3f 31 a5 c3 97 99 5c 43 3f
       0.0005699649107012649 0.0005908727612481732
000440 72 23 9e 14 ca d1 42 3f 84 55 5a 14 72 67 45 3f
       0.0005743252488495788 0.0006532008198571336
000450 81 55 f0 1b 3d 5e 45 3f 52 53 32 12 00 46 3c 3f
       0.0006521032700016889 0.00043141843543397396
000460 13 99 7d 27 c7 60 4d 3f f4 74 0b 36 aa 16 38 3f
       0.0008965465958510631 0.00036756187004789655
000470 56 22 78 99 99 90 3c 3f fd 5c f6 d1 fe 39 4d 3f
       0.0004358649252656268 0.0008919233550156721
000480 49 82 99 68 d8 6a 4a 3f ec 75 21 39 a5 10 47 3f
       0.0008061939890460858 0.0007038885835403664
000490 c7 0b 10 d0 1c 46 1a 3f 4b d1 ac e0 2d 21 4e 3f
       0.00010022688731230112 0.0009194826137446736
0004a0 fa 2f f2 82 7d 67 47 3f b7 cc 85 ce 77 5d 50 3f
       0.0007142412995491114 0.0009988470065678664
0004b0 94 1c 72 29 a7 96 23 3f dc d0 39 83 5e 72 4c 3f
       0.00014944830465799376 0.0008681260573682142
0004c0 85 5b 37 ae 5b 4c 25 3f 86 68 42 19 b0 2b 44 3f
       0.00016249293467637482 0.0006155595642838442
0004d0 83 b8 c9 8d b5 3a 20 3f d5 75 4b ce 9b c9 4b 3f
       0.0001238199828494415 0.0008480082293222344
0004e0 c3 98 38 43 48 74 4a 3f a7 c7 bd 87 f6 a5 42 3f
       0.0008073189587250107 0.0005691007386145933
0004f0 08 a8 ef f1 66 af 3a 3f 2d 86 0b ef b7 21 12 3f
       0.00040718329722599965 6.916699545513805e-05
000500 8d 1a cf e2 74 da 46 3f 0f 19 4c fd 2e b9 3d 3f
       0.0006974287731445636 0.0004535426826780689
000510 83 5b c2 97 0a a9 47 3f 77 a4 ba e0 bd 63 4c 3f
       0.0007220555994703479 0.0008663823259286292
000520 37 b7 f2 7a 44 f7 4f 3f 4e 6e 06 af ff 0a 4c 3f
       0.0009755215050028858 0.000855803342392611
000530 7d 1f a5 78 f3 90 e8 3e fe 64 a3 03 6e 97 37 3f
       1.1714084185001972e-05 0.0003599780644783639
000540 bc a7 c6 cb 9a eb 47 3f f2 0a a4 b3 ef 7e 26 3f
       0.0007299905624240581 0.00017162967726144053
000550 70 5a 82 97 c5 12 41 3f cd 5c 12 10 1f 7d 0c 3f
       0.0005210366062041293 5.433798833925363e-05
000560 4a da 46 11 c5 36 2a 3f d3 0d 07 06 e8 6b f3 3e
       0.00019999652489640008 1.8521794460613972e-05
000570 62 ea e3 d6 04 02 4a 3f 0a 79 89 6c aa 59 2d 3f
       0.0007936977033574206 0.00022392468806038012
000580 87 25 99 2c 0a a2 36 3f 4e e9 d7 66 4f 69 4e 3f
       0.0003453516806969027 0.0009280812934655909
000590 dd 09 d8 68 0e 15 47 3f 69 89 e2 49 59 b1 00 3f
       0.0007044144019235328 3.183892953130785e-05
0005a0 23 43 31 08 38 96 25 3f 2c 29 6e b4 56 5d 44 3f
       0.00016469415649791275 0.0006214784014997635
0005b0 9d 0a 87 f4 24 ea 42 3f 4c 0b 88 c6 5b 2e 2f 3f
       0.0005772285886041676 0.00023789282137450863
0005c0 38 53 c6 48 c1 9c 4e 3f 70 51 d2 d9 51 1e 44 3f
       0.0009342139979247937 0.000613965955965896
0005d0 ef 74 92 af 36 8d 41 3f ac e4 2b 07 86 54 43 3f
       0.0005356328030249583 0.000589909976354571
0005e0 b6 15 93 1e b5 ec 47 3f 6b a0 c1 8d 91 71 34 3f
       0.0007301220295167696 0.0003119449954796019
0005f0 98 f7 54 70 0a 19 3a 3f 6b 4c 07 14 30 81 2b 3f
       0.0003982210622160919 0.00020984374897512216
000600 96 b5 f3 bd 99 67 28 3f 06 75 de 43 f8 f1 4e 3f
       0.00018619300588033617 0.0009443723899839336
000610 34 6c 3e 3d cd 3b 48 3f 38 95 82 45 44 12 40 3f
       0.0007395507950492875 0.000490458808617567
000620 46 e8 90 c7 c4 ce 2d 3f 98 86 4e c5 64 ab 30 3f
       0.00022741462797332325 0.00025435648177039296
000630 50 9d 35 c4 8a 6c 0e 3f 9e b1 19 33 4d 78 3c 3f
       5.802916032387562e-05 0.0004344166255581208
000640 ba c4 be 1d 11 6f 34 3f 66 79 70 41 5a d1 46 3f
       0.00031179588199410256 0.0006963434888154596
000650 2f 42 b7 cb 9f c1 38 3f 25 7e bc d7 7f 8a 27 3f
       0.0003777518392924809 0.0001796036775596348
000660 50 2d 33 4d a5 e0 f9 3e 21 ac 07 df 0b a1 11 3f
       2.467872839133123e-05 6.724963146324859e-05
000670 d8 f2 24 df 28 43 46 3f 69 1c 13 1c c5 bb 3d 3f
       0.0006793927734985673 0.00045369684455604534
000680 f8 1f eb 14 27 95 41 3f 72 d2 7e f0 d2 61 4d 3f
       0.0005365792111087222 0.0008966712930403421
000690 26 89 06 59 c8 39 50 3f 0c 58 c0 e8 da 6d 2c 3f
       0.0009903389473967044 0.00021689698439847393
0006a0 e6 78 37 99 4d ba 45 3f ec 7b 13 ff d0 41 31 3f
       0.0006630782031001009 0.00026332237673715067
0006b0 1b af 9a e0 75 a7 f5 3e 7b 31 13 c2 bd d9 48 3f
       2.0650999465728682e-05 0.0007583786538361415
0006c0 bf c3 6a 32 ff f8 34 3f 96 69 79 e2 74 21 39 3f
       0.0003200171508224679 0.000383463894171898
0006d0 a3 fd 95 61 29 47 43 3f 45 84 e3 f7 56 3b 4b 3f
       0.0005883171135536057 0.0008310484552361905
0006e0 3e 1f 58 39 48 9c 44 3f 12 4c 53 03 53 98 4c 3f
       0.0006289818435911488 0.0008726506554473953
0006f0 d5 1d f7 17 46 ed 31 3f 9c c6 b2 86 80 26 4a 3f
       0.00027354203481563577 0.0007980468339125637
000700 69 5b 98 9e e8 54 28 3f 89 24 d8 80 98 38 4f 3f
       0.00018563594430595222 0.0009527916569719445
000710 ff 8d ec d4 11 87 46 3f 4c 03 b9 d9 3c 3f 2c 3f
       0.0006874882763878153 0.00021550767711355846
000720 7d 1d 07 da 1e 0b 4f 3f 2b bd e2 e4 dc f2 47 3f
       0.0009473705904889243 0.0007308558067701578
000730 f6 4c cf 0c 6f a4 30 3f 60 3b eb ee 8f f5 2b 3f
       0.00025394164259502584 0.00021331197736748197
000740 15 8a 3e 8f fb fa 40 3f d7 b3 6b 8e c8 e8 fa 3e
       0.0005182007139306633 2.5662718054531575e-05
000750 7d e3 b9 60 8a 31 2b 3f 2b 2f 0a 33 0a d5 3b 3f
       0.0002074700754411094 0.00042468546875150626
000760 1b 67 24 d4 87 85 38 3f b2 b7 70 49 81 61 3e 3f
       0.00037416998033422557 0.0004635754243648107
000770 ec 84 c6 36 d6 31 32 3f cb be f6 c9 4d 3a 43 3f
       0.00027762870629473193 0.0005867843464581688
000780 3c 4e b7 c9 8b 4e 4c 3f 9a b1 0e e9 6d cf 1e 3f
       0.0008638556059232315 0.00011753185596203309
000790 63 64 24 2c 17 f4 40 3f e8 71 2b 65 78 4f 21 3f
       0.0005173791071541141 0.00013206810634515333
0007a0 2e 3f 7a 71 74 7d 47 3f 5c b6 87 78 c7 f4 39 3f
       0.0007168596811925937 0.00039605970280729374
0007b0 8b 8a 7d 05 19 87 42 3f 00 c8 1b ce d9 05 28 3f
       0.0005654213118585089 0.00018327983621407862
0007c0 1f 89 4f c7 48 fc 22 3f 65 27 95 c3 39 fc 3f 3f
       0.00014484775934337724 0.0004880562806489546
0007d0 31 54 40 14 31 4e 37 3f 09 ff 77 39 ea d0 4e 3f
       0.0003556127378499556 0.000940431945252813
0007e0 3c b2 cb 77 03 14 49 3f 2c c6 a8 e1 3e 88 48 3f
       0.0007653252538069653 0.0007486636198505473
0007f0 2e f9 0c 5d f3 9c 4d 3f e6 c0 24 87 62 de 15 3f
       0.0009037197397459334 8.342243544201856e-05

b1 f8 [1, 32]
000000 b0 26 9a 19 74 bd e9 bf 3b f3 8d 89 75 af b2 3f
       -0.8043766498605773 0.07298979385627728
000010 d0 3b 3c 58 ea d9 f1 bf 53 03 67 7b 30 8e d4 bf
       -1.1157020041171002 -0.3211785512067326
000020 9b 0e db 35 cf 78 ed bf 1b 78 d5 51 5d 24 da bf
       -0.9209972431057908 -0.4084695147665813
000030 72 10 19 9c c0 32 e9 bf 38 71 28 bd 7d 8d f7 bf
       -0.7874453591143846 -1.4720437420829295
000040 d7 2d 99 db e5 76 f1 bf a0 68 df 99 b7 d8 eb bf
       -1.0915278032360811 -0.8702047353101712
000050 4b d2 2d e5 57 85 d0 bf 01 35 61 66 f2 c7 d2 3f
       -0.2581386316371989 0.29345378873843236
000060 3e 57 4e 8c fb 35 cd bf 63 ae 6a 69 22 b2 f2 bf
       -0.22820991850738354 -1.168489848884655
000070 06 ee b3 fa 27 ff f4 bf c3 bb 15 d4 24 ec d3 bf
       -1.3122939866142374 -0.3112880774632993
000080 63 23 c1 4c 45 fe b4 3f ec 76 70 57 aa 6b cf 3f
       0.08200486301315162 0.24547318715570243
000090 a1 92 f6 79 b3 be 03 c0 c9 2b bf ed 7d dc d7 bf
       -2.4681157616017377 -0.37283275811631406
0000a0 35 db 18 8e 75 6f f8 bf e2 ab 0e 40 8c 20 ec 3f
       -1.5272117186229484 0.8789731265181866
0000b0 3e 1c dc 02 1c db f5 bf 2c e5 c5 1d 48 16 d0 3f
       -1.3659935104094667 0.25135996730348853
0000c0 8d 44 5a fb 05 34 cc bf 1c 42 fa 0d a1 57 d2 3f
       -0.220337627154127 0.286598457002613
0000d0 f8 e2 2e 97 f8 da e0 bf f8 58 07 0a e7 e0 df bf
       -0.5267298653407968 -0.4981019590317284
0000e0 b1 f6 78 e9 a0 b0 f4 3f 80 2a 34 64 6c a1 e5 bf
       1.2931222076435172 -0.6759550053696586
0000f0 a8 5e 52 de b6 76 c7 3f 3f 60 24 d3 34 9e f2 3f
       0.18331037383608373 1.163624596380046

W2 f8 [32, 10]
000000 ce 15 22 d9 c5 5c f3 bf 87 2d d4 b7 19 97 17 c0
       -1.2101496202243314 -5.897559044194515
000010 7e f4 a9 83 66 46 06 c0 42 31 8e 14 13 6b 0a c0
       -2.784375218032948 -3.3022824865239793
000020 29 33 cc 10 d5 b9 06 c0 f6 70 b3 3a ea 1c 00 40
       -2.8407384216610763 2.0141186319361806
000030 f1 28 29 e4 ca ae e8 3f b0 f9 28 9a b4 e8 d1 bf
       0.7713369804635289 -0.2798282151669822
000040 53 c5 77 11 76 ca f3 bf 23 2b 99 eb ee da db bf
       -1.2369290048921655 -0.435237627102355
000050 67 22 b2 bd ff 1b fe 3f e8 b3 10 11 57 45 04 40
       1.8818356904977465 2.533857472727039
000060 83 cc 64 5d 30 fa 04 c0 68 5b bc d1 39 7d f2 bf
       -2.622162561072004 -1.1555727188876634
000070 c6 a9 3e 67 8c 7a e6 3f ba f5 54 bc 36 e8 d4 3f
       0.7024595276355334 0.3266732062509977
000080 da d9 bf f8 f7 44 c2 3f f4 ca 18 78 66 b8 02 40
       0.1427297558399932 2.3400391943517835
000090 c2 49 49 9a c9 0f 08 c0 da e1 61 55 53 44 e7 3f
       -3.007708745347572 0.7270905177711555
0000a0 85 34 3d 34 3f 88 f6 3f 6f 75 f9 6a cd 5b c6 bf
       1.4082634010876813 -0.17467658732759214
0000b0 d1 dd 19 db f8 b6 e2 3f d9 40 3b 04 d6 b1 e2 bf
       0.5848354605977254 -0.5842084963460606
0000c0 eb 65 54 9b db c2 f2 3f 70 98 cb 33 c5 d4 0d c0
       1.1725727145734435 -3.7288917585856822
0000d0 61 2f 31 99 cb ae f2 bf 27 ea 75 8b 9e 7c ee bf
       -1.1676746353213832 -0.9527123187866139
0000e0 e8 f1 89 49 d4 e4 fa bf 54 8f f4 23 d2 13 de 3f
       -1.680866515408633 0.4699597693563551
0000f0 7a b1 3b 33 b0 fd 10 c0 69 0b c3 48 e4 c8 07 c0
       -4.247742462652576 -2.9730916676066284
000100 9e 33 1c 38 31 99 00 c0 31 3b e9 81 04 bc e6 bf
       -2.0748009093862967 -0.7104513680768375
000110 7f b0 45 be 9e 9f e6 3f 9c ef 43 53 00 a4 ee 3f
       0.7069848743681318 0.9575196863438467
000120 11 28 c0 31 29 f1 00 c0 95 08 0d 66 eb 0b ec bf
       -2.117754353214885 -0.8764550202543143
000130 c8 07 40 59 e4 8a f4 3f 5c b7 98 cf 3f fb b5 bf
       1.283909176476742 -0.0858650094821462
000140 ae 42 16 e5 37 7c 06 c0 56 bf 2d 1c 0e eb fc bf
       -2.8106534860056263 -1.8073865032892704
000150 03 fd 3b a2 e2 26 d1 bf 90 a6 33 e5 fb da c3 3f
       -0.2679983696288703 0.155120360293314
000160 8d ed 96 77 4e 49 e8 bf 81 fa 69 b5 c0 f4 0d c0
       -0.7589485488637578 -3.7445081875769692
000170 2c eb 6c 8a 74 62 cd bf 9c 66 6a e0 28 a1 eb bf
       -0.2295671153932174 -0.8634228118055094
000180 f8 c8 94 6b 87 a0 f2 3f 17 36 6a 69 ed 0f c2 3f
       1.164191646803884 0.1411110653611309
000190 9c 72 c8 14 dc 78 f6 bf eb 23 bd 78 0f a8 d8 3f
       -1.4045067607723132 0.3852575949754839
0001a0 b4 9d dd 70 39 b9 e1 3f 6a e1 3c a9 b2 c6 dd bf
       0.5538603977592431 -0.46525255705957724
0001b0 c1 6a 3d dc 09 f0 ea bf c0 5f cb 54 92 e0 0d c0
       -0.8418015767632242 -3.734654104668124
0001c0 ef 40 b2 d7 40 48 02 c0 85 10 e6 e4 f2 f5 f7 bf
       -2.2852799273751923 -1.497546095023638
0001d0 95 16 c5 ad 82 9a df 3f 38 b5 13 b5 b6 60 f7 3f
       0.49380557031359135 1.4611117432899174
0001e0 26 ba 5c 73 e1 f3 d5 3f e3 27 76 28 e6 5d e0 bf
       0.3430102945884833 -0.5114622869743893
0001f0 80 09 00 a6 1f e3 d1 3f 24 8c a8 fa 10 9e c5 bf
       0.27948752604438454 -0.16888630141429062
000200 86 c3 5f fe 76 a8 15 c0 c0 3a 30 5a c3 6a d8 bf
       -5.414516424746472 -0.3815163021799144
000210 7a 5d 52 1f 6c c4 d1 bf 8a 63 90 a3 de e9 12 c0
       -0.2776136690021854 -4.728388362586779
000220 c5 35 c2 bf 60 37 a2 bf aa 9b 29 af 99 fc fb bf
       -0.03557875004581094 -1.7491700022016894
000230 42 48 c7 cb 85 5b e7 3f 97 75 23 33 40 c4 04 c0
       0.7299221973464756 -2.595825576324113
000240 5b bb 2a 8b 44 10 f5 bf 28 1d 31 7f ad 1b ea bf
       -1.3164716182906975 -0.8158786281791537
000250 d7 8c d1 7f d1 ef f2 bf d2 80 6c 2d 1c aa fd bf
       -1.183549403468353 -1.8540307783478522
000260 7a 0d dd 31 1d 72 ed bf 64 a9 d8 05 49 56 e4 bf
       -0.9201799367805699 -0.6355328668771958
000270 3c c1 a5 e2 22 b8 f0 3f 32 04 34 76 34 88 a0 bf
       1.0449551442544154 -0.03228916113767645
000280 f9 4d 07 f3 98 45 f5 bf 87 bc 7a b7 c4 3a d1 bf
       -1.329491566972932 -0.2692119399825476
000290 18 4e 7b 65 4f 06 ed bf 7c 8d 91 d8 91 a9 d9 bf
       -0.9070202810348205 -0.4009747137954134
0002a0 73 4b 6d d9 3c bb e8 3f b8 74 c6 83 06 49 ff bf
       0.7728561636562133 -1.9553284785718414
0002b0 b5 1c 62 92 af ad d3 3f 81 a9 66 ff ae 27 f9 bf
       0.30747594161261854 -1.5721883751490113
0002c0 ed b1 15 ce 06 92 ee 3f c0 f3 9d 46 19 0c 01 c0
       0.955325510510702 -2.1309075848534746
0002d0 1a 5c 21 99 45 ed e1 bf 80 17 9f d3 95 3a cd bf
       -0.5602138510538481 -0.22835038025931098
0002e0 ac a1 f2 e7 a2 7e 00 c0 f0 63 41 10 af a7 0b c0
       -2.0618341561241404 -3.4568768758731423
0002f0 64 24 78 84 10 4b ce bf 2e 0a 28 30 f8 5e 11 c0
       -0.23666578739383504 -4.342743637508233
000300 46 bb b5 f9 fb df e3 3f da 5f f6 84 68 4e f2 3f
       0.6210918309351221 1.1441426462024453
000310 fa fe 74 46 d3 d5 12 c0 e4 9b d6 6c cc bf e8 3f
       -4.708813763514394 0.7734129071949352
000320 ae 98 a2 56 ca c1 e9 3f 84 0a 4f 9b 5b d9 11 c0
       0.8049060527889844 -4.462263514231953
000330 7c 8a 4f ee e0 87 03 40 cc 67 f2 16 5a 12 fa 3f
       2.4413469903968785 1.6294804474223268
000340 3e 9e 65 4a dd 5b ee bf 4b cb 87 81 7e 7c f7 3f
       -0.9487139180245732 1.4678940830023801
000350 a8 61 de 12 37 b0 ff bf c1 4b 96 31 14 65 fb bf
       -1.980521272378704 -1.7121774613376461
000360 a4 49 e5 72 26 95 0c c0 54 f4 a9 10 38 63 fb 3f
       -3.572827241537384 1.7117233897145256
000370 b4 3e a0 da f3 bb e7 3f 59 3d 3c 70 2d d1 eb bf
       0.7416934270895212 -0.8692843620391769
000380 8a b5 97 25 11 d3 07 c0 36 0d f0 16 75 b2 02 c0
       -2.978060048763557 -2.3371373931892334
000390 19 f7 2c f5 1c ae 02 c0 c7 a6 d9 e8 8c 8d f7 3f
       -2.3350161699626253 1.472058209963892
0003a0 5e 53 6b e1 42 a9 e5 bf 7b 19 13 11 c3 2e f3 3f
       -0.6769117739409969 1.198916498849569
0003b0 d0 f8 5f 04 83 4e 05 c0 78 5f 6e 3f 87 2b f1 bf
       -2.6633358327663714 -1.073127029207141
0003c0 6e 2e 5b 7d 83 11 f4 bf db 04 55 22 78 c8 07 c0
       -1.2542757889486 -2.9728853876300554
0003d0 bb d2 49 8f 96 10 fb 3f 9b b4 01 e6 2f fb f6 bf
       1.691549834938242 -1.4363249764094579
0003e0 74 a4 05 43 c9 0d e9 bf ad 66 43 b4 17 fc 05 40
       -0.7829328831695777 2.7480920870846917
0003f0 43 8c 29 66 11 c2 0b c0 98 d5 f7 b4 7c 3c bc bf
       -3.4697597485951817 -0.11029796045462203
000400 08 b5 bf 1a 44 06 ff bf 5f da 39 24 5b e1 f5 3f
       -1.9390297932507696 1.3675185599401158
000410 4a 18 77 00 ee d5 11 c0 f5 f3 5e 2e 6a 86 f3 bf
       -4.458915717381453 -1.2203161059726402
000420 3c a9 40 dc a7 21 00 40 b5 bd 37 cb 1f 68 f6 3f
       2.016433449481296 1.4004209459488781
000430 f9 d3 ec e8 7b 2d 13 c0 be ea d3 fd 6e 2c f6 bf
       -4.794417991118274 -1.3858480372570479
000440 84 f7 f0 fa 23 6b 07 c0 18 a5 6b bd 76 26 f8 3f
       -2.9273147206103562 1.5093905829656418
000450 4c 91 0f 49 4c de 01 c0 b4 1c 1f f4 c0 b1 11 c0
       -2.233543940341553 -4.423587622069295
000460 c1 71 45 a7 d7 0d f7 bf e8 f3 8e 5d 0d 54 fe bf
       -1.4408794912370555 -1.8955205587983475
000470 bd b4 bc 9c d3 eb 11 c0 c3 72 03 18 a6 ab 10 40
       -4.4802994241883285 4.167625785074679
000480 03 f5 18 d1 a3 ac cc bf 7d f2 29 12 c6 b2 08 c0
       -0.22401855192030248 -3.0872918528605724
000490 94 90 59 a6 31 8d f8 bf 14 bc 26 97 00 37 dd bf
       -1.5344711778680322 -0.4564820743643747
0004a0 9b 48 64 4c 70 df 03 c0 80 d8 a0 7b e0 2d 08 c0
       -2.4841009109596377 -3.0224008234463895
0004b0 d9 fa ee 36 82 cf ff bf 7f 0a 06 67 51 94 11 c0
       -1.9881612916794238 -4.394841775649751
0004c0 e2 81 e9 70 f3 da d3 bf de 01 13 1f 88 3e d3 bf
       -0.31023870493484484 -0.30069163355440576
0004d0 9d 3e 1b 6e 6e 4d 15 c0 36 f4 54 cd 03 72 8f bf
       -5.3256165699127935 -0.015354184821825805
0004e0 a1 bc 04 aa f2 b5 05 40 69 69 37 1f 5b a7 05 40
       2.713841751355702 2.706716770056279
0004f0 25 7e 22 13 6a f6 c9 bf f2 06 e1 7e 6d 4e 04 c0
       -0.2028324693137488 -2.538294783823283
000500 b0 17 41 5f 2a a4 0a c0 9c 24 6b 88 c0 50 d2 bf
       -3.3301589433421768 -0.28617871591684163
000510 ad 15 19 fb 00 bb 12 c0 f4 ee a6 ed ba 98 f1 3f
       -4.68262092915158 1.0997876437458531
000520 dc 5d 98 1b a2 27 08 40 c8 25 6b cb 80 7e 00 c0
       3.0193521648286445 -2.0617690937112663
000530 19 75 3f b0 cf 7a e9 bf c5 08 6d 99 16 a0 c3 bf
       -0.7962416117040078 -0.15332300654887923
000540 52 ae 69 35 2b 35 f6 bf 02 dc e8 88 5e 81 09 c0
       -1.3879806600988513 -3.188168592077546
000550 83 c0 ee 7e 97 03 ea 3f 4a 67 50 cf 63 59 06 c0
       0.8129384497788269 -2.793647403374881
000560 f2 eb 92 50 85 ba cf 3f 63 7d 19 db 76 d9 eb 3f
       0.24787966188691218 0.8702959327019183
000570 17 24 4f 84 e8 85 fe bf 4d d1 29 d7 dd d6 09 c0
       -1.9076924484563784 -3.2299153146397317
000580 d1 58 c0 87 c4 20 0a c0 9d 78 e9 2f 76 a8 e3 bf
       -3.2659998517584445 -0.6143141685277161
000590 ba b3 af f7 c8 7a f2 bf 7f 73 01 77 fa c5 f0 3f
       -1.1549768138167864 1.0483345650347642
0005a0 0e c4 6f 9c cf 40 09 c0 76 0f 17 d4 9e 5e d1 bf
       -3.1566459867103793 -0.2714001723472771
0005b0 23 bc 8e 83 ab 83 c4 3f a9 b2 de c1 04 83 f0 3f
       0.1602682487841501 1.031986958793974
0005c0 43 00 9f f1 37 54 03 c0 43 78 23 d2 df 97 ee bf
       -2.4161223293922673 -0.9560393432873372
0005d0 01 16 5f 88 e8 dd 13 c0 c0 b2 8a 64 e6 96 f8 3f
       -4.966707354358278 1.5368408133901283
0005e0 05 86 ea 61 1d a8 e7 bf 29 c6 29 89 ea 9c 0f c0
       -0.7392718231605505 -3.951619216525405
0005f0 b7 82 6c 33 ba 94 eb bf 8e e5 b4 63 da 22 af bf
       -0.861905193745847 -0.06081278292772217
000600 9f 8e 61 67 9b e7 fb 3f 1c a2 d7 b8 47 ae 08 c0
       1.7440446890185866 -3.0850977364355128
000610 4f 4d 0f 6b 04 52 d2 bf b6 15 5a 0e 26 0c f0 bf
       -0.2862559361940002 -1.002965980588994
000620 4c b8 a2 9f c1 29 c6 bf d6 b0 2e 3e 97 54 0a c0
       -0.17314930243213877 -3.291304097938432
000630 1b 7d 5f 9f ec c5 f2 bf 9a 2a c2 76 9e 11 e4 3f
       -1.1733213639743727 0.6271507567883703
000640 c4 93 ff 5c 76 3f f2 bf 03 5c 4f ae 8a 40 f9 3f
       -1.1404937393901813 1.5782572564110076
000650 fd 7f 5a b8 26 8f 08 c0 4e 3d 19 f1 58 00 07 c0
       -3.069898071538772 -2.8751696430041767
000660 59 e9 f1 6a a6 5a e6 3f ea c3 68 fb fd 0b ff bf
       0.6985656822937855 -1.9404277630494513
000670 85 2d 91 c0 b3 b0 f2 3f a6 13 0c 5b 39 e9 f3 bf
       1.1681401750709892 -1.2444394642381922
000680 92 14 b5 ea 09 59 03 c0 9f ce d2 68 78 49 d1 bf
       -2.418475946093687 -0.27010927426020176
000690 1b f7 81 73 42 7e f3 3f d6 89 94 53 23 ac d4 3f
       1.2183250915545105 0.3230064693654219
0006a0 68 fe b9 78 51 83 f9 3f 5c 95 c0 27 96 4d f0 bf
       1.5945601192360304 -1.0189420273612404
0006b0 35 d1 fa 50 52 26 e3 3f 8d 75 40 b6 25 52 e8 3f
       0.59842792335852 0.760027748070273
0006c0 db 5b e9 c3 ff 65 00 c0 60 cf 27 8d 81 b2 03 40
       -2.049804239806219 2.462161162164122
0006d0 02 28 17 66 ce 32 0a c0 18 97 85 ae ef 12 0e c0
       -3.2748077369515167 -3.759246219112253
0006e0 5e b7 37 f4 35 03 0c c0 80 cd d5 b8 d8 91 d2 bf
       -3.501567752790762 -0.2901517682104995
0006f0 2d 36 19 c6 f8 84 f7 bf fd f2 38 59 66 88 f9 3f
       -1.4699638117048253 1.5958007321598295
000700 c3 72 77 c3 8a de d6 bf 10 95 8c 88 66 76 ee 3f
       -0.3573328884938684 0.9519531886077477
000710 d9 39 b2 70 39 36 1b c0 6e ba 51 b7 62 eb f0 bf
       -6.802953492048311 -1.0574671898754349
000720 db c1 0d 5d 1c 60 f5 bf b8 cc a4 df d9 be e7 3f
       -1.3359645495330514 0.7420472496072739
000730 81 67 e3 aa 09 43 ff bf c2 4a 74 45 f4 fb e8 3f
       -1.9538666415523667 0.7807561260727527
000740 8b bd 41 88 e0 75 0b c0 ec f8 e7 8d 09 6e fa 3f
       -3.4325571675360087 1.6518645804604217
000750 2f 08 a9 f9 d2 aa f1 bf 53 77 6e 4a 47 7c f4 3f
       -1.1042051079134685 1.2803414256554404
000760 e1 52 5f cd e1 13 14 c0 5d 3f 3b 1f 28 b1 e9 bf
       -5.019416054671383 -0.8028755769719101
000770 b3 b8 40 c5 a2 bc 02 c0 8f 0c 03 49 91 6c ef 3f
       -2.3421073351265362 0.9820028711332202
000780 30 96 f9 66 70 49 f0 bf 9a 95 47 98 bb 31 ec 3f
       -1.017929460760012 0.8810708975039916
000790 d3 3a e1 7c 85 02 e5 bf b4 83 53 da 61 09 f4 3f
       -0.6565577925738019 1.252290585362272
0007a0 ba b5 7a 85 bd 2d 0a 40 2a e3 98 e8 6f 8f fb bf
       3.272334139640148 -1.7225188337162742
0007b0 07 fa 7b 2a 55 93 b3 bf 9c 08 8d b7 23 50 ec bf
       -0.07646686827863657 -0.8847826561907541
0007c0 63 9e 64 67 c3 9f f0 bf fc b5 fe 6c ee 4b 0b c0
       -1.0390047110357947 -3.412075854800376
0007d0 fc 58 2c 4e 1c 55 ca 3f ee 9f e6 23 03 90 bc bf
       0.20572236840298064 -0.11157245279775882
0007e0 e0 cc f0 66 a5 0e e2 bf 19 1f 2a 0e 2a 72 f0 3f
       -0.5642878542479615 1.0278721383383014
0007f0 9b f5 f9 f0 e0 63 f4 bf d9 08 d6 d7 dd 2f d6 3f
       -1.2743844426289346 0.3466715438627382

b2 f8 [1, 10]
000000 dd 1c 1d dc 9e a8 db bf 69 77 6e 3e 1e 42 f8 bf
       -0.432166781382376 -1.516142124054989
000010 df 23 69 3f 23 d9 fd bf 42 0e 77 54 a0 06 02 c0
       -1.8655121304493532 -2.253235492594997
000020 8f 0e 8c 57 03 96 d5 bf bf 60 44 61 97 9f dc bf
       -0.3372810702278252 -0.4472406816362415
000030 7e 63 15 cc 0b 79 f8 bf b6 07 8c 2a 67 e4 f2 bf
       -1.529552266312947 -1.1807624494544888
000040 5b 62 82 34 c1 6b e4 3f 37 32 f7 ad 0a 5d f5 bf
       0.6381536508152509 -1.3352152629405631
